IrisDatasetModel.pt (torch_old, 2794 bytes, 8 tensors)

fc1.weight f4 [8, 4]
0.9352727 0.32748777 0.5819261 0.818297 0.3274221 0.49326125 -0.5841038 -0.63082504
0.50631046 0.20614591 -0.4124934 -1.0357792 0.17648357 0.60046494 0.030232383 -0.22232546
0.16486232 -0.25873804 -0.17956837 -0.26325855 -0.3342507 0.35430288 0.083434045 0.036129415
-0.16042906 -0.22272676 -0.21209782 -0.35804802 0.08958864 -0.16672212 -0.4620546 0.36504918
00000000: 086e 6f3f 7aac a73e 1cf9 143f ea7b 513f
00000010: dfa3 a73e bd8c fc3e d487 15bf c07d 21bf
00000020: 909d 013f ea17 533e 5632 d3be 6a94 84bf
00000030: 1cb8 343e 12b8 193f e7a9 f73c 49a9 63be
00000040: abd1 283e 5079 84be c5e0 37be d3c9 86be
00000050: e822 abbe 3067 b53e 78df aa3d 70fc 133d
00000060: 8447 24be 7c12 64be 2c30 59be 1252 b7be
00000070: 407a b73d 34b9 2abe 6c92 ecbe bae7 ba3e

fc1.bias f4 [8]
-1.0299387 1.4257836 0.8730318 1.0824823 -0.37810057 0.065540195 0.47375745 0.37815744
00000000: 08d5 83bf 1480 b63f 037f 5f3f c88e 8a3f
00000010: 6696 c1be f039 863d 5690 f23e da9d c13e

fc2.weight f4 [16, 8]
-0.15397464 0.11451995 0.4989872 0.16912727 -0.123333395 -0.26269633 0.26137754 -0.11272386
0.11297174 0.75763494 0.8373699 0.2721509 0.02912926 -0.26693267 -0.31492832 -0.0611856
-0.20368437 0.82270193 0.3111157 0.4708625 -0.17765738 -0.20446599 0.04781851 0.1861445
0.74014145 -0.31184813 -0.6997044 0.40981665 0.13405135 0.09657562 0.088894665 0.2573665
-0.15565492 -0.1260522 0.2613571 -0.039476514 0.16660985 -0.003959894 0.31135705 0.023660243
0.6815322 -0.36921543 -0.67906606 -0.028857926 0.27414492 0.15400806 -0.23255518 0.3114225
-0.08982307 0.2832761 -0.033401847 -0.15193285 -0.10563631 0.047700614 0.16786405 0.24914643
-0.16670166 0.74696374 0.80929196 0.39833382 0.36591324 -0.10691813 -0.028610766 -0.28747106
0.029467002 0.6798452 0.13313651 -0.03516464 -0.21651715 0.021874636 0.08440092 -0.3156956
-0.20366347 -0.2186017 -0.22511394 -0.1431722 0.29020855 0.26448044 -0.063503414 -0.16127677
0.6784208 -0.44498503 -0.68434083 0.14083849 -0.16901137 -0.32982168 -0.34327427 -0.22693035
-0.35304317 0.06462037 0.1771623 0.2218713 -0.050627846 0.08927688 -0.025125682 0.3340946
-0.2064632 -0.28037003 -0.29627526 0.12896746 0.02889204 -0.29898295 -0.2248512 0.33292463
-0.23693925 -0.2696355 -0.26861396 0.13413501 0.31473944 -0.11318612 0.044451177 0.25395086
0.6557106 -0.50137174 -0.14758888 -0.18591082 0.025019625 -0.123108536 -0.08868745 -0.13842972
0.2045904 0.73303944 0.16371725 0.5053052 -0.16600491 -0.06833583 0.19585988 0.20703116
00000000: 87ab 1dbe 6f89 ea3d 407b ff3e b32f 2d3e
00000010: 3896 fcbd 2280 86be 47d3 853e c4db e6bd
00000020: ba5d e73d 5df4 413f e05d 563f 5d57 8b3e
00000030: 7ca0 ee3c 66ab 88be 493e a1be c09d 7abd
00000040: a392 50be 989c 523f 8f4a 9f3e e414 f13e
00000050: d1eb 35be 885f 51be 58dd 433d aa9c 3e3e
00000060: e979 3d3f 8faa 9fbe d41f 33bf 7dd3 d13e
00000070: c244 093e 70c9 c53d 680e b63d 8bc5 833e
00000080: 0164 1fbe d413 01be 99d0 853e 20b2 21bd
00000090: c69b 2a3e 00c2 81bb 316a 9f3e 20d3 c13c
000000a0: e578 2e3f ce09 bdbe 46d7 2dbf 7567 ecbc
000000b0: b95c 8c3e 4ab4 1d3e f222 6ebe c572 9f3e
000000c0: 28f5 b7bd 9109 913e 60d0 08bd 4994 1bbe
000000d0: da57 d8bd b861 433d 8ee4 2b3e 3e20 7f3e
000000e0: d7b3 2abe 0439 3f3f c22d 4f3f 69f2 cb3e
000000f0: fb58 bb3e e4f7 dabd 2061 eabc 682f 93be
00000100: c864 f13c 560a 2e3f f054 083e cc08 10bd
00000110: acb6 5dbe 7032 b33c 64da ac3d dba2 a1be
00000120: 288d 50be 20d9 5fbe 4584 66be bc9b 12be
00000130: 3796 943e fb69 873e 140e 82bd bd25 25be
00000140: fcac 2d3f 14d5 e3be f630 2fbf f737 103e
00000150: 5111 2dbe 63de a8be a5c1 afbe 6e60 68be
00000160: 13c2 b4be af57 843d 096a 353e 3b32 633e
00000170: 255f 4fbd ccd6 b63d 60d4 cdbc 730e ab3e
00000180: 176b 53be a98c 8fbe 64b1 97be 0c10 043e
00000190: 00af ec3c 4b14 99be 653f 66be 1975 aa3e
000001a0: 34a0 72be aa0d 8abe c587 89be b05a 093e
000001b0: 8725 a13e 20ce e7bd 7012 363d d905 823e
000001c0: a6dc 273f e659 00bf 8a21 17be 685f 3ebe
000001d0: f5f5 cc3c 5420 fcbd c4a1 b5bd 85c0 0dbe
000001e0: 2580 513e 79a8 3b3f 7fa5 273e ae5b 013f
000001f0: 31fd 29be a8f3 8bbd 7e8f 483e faff 533e

fc2.bias f4 [16]
0.9616176 0.65493923 1.0401812 -0.41130236 0.12375879 -0.16261962 -0.34484398 1.1266127
1.4475286 0.19228235 -0.739362 -0.08413531 -0.15273082 0.3074192 -0.7258542 1.1592617
00000000: 922c 763f 19aa 273f a824 853f 3996 d2be
00000010: 4075 fd3d c285 26be 648f b0be d834 903f
00000020: 9e48 b93f aae5 443e d446 3dbf 224f acbd
00000030: 7865 1cbe 0d66 9d3e 95d1 39bf b062 943f

fc3.weight f4 [10, 16]
-0.12130886 -0.047621608 -0.23211277 0.17193145 0.06846842 -0.15230161 -0.037863255 -0.12200302
-0.24902287 -0.015538871 -0.120563686 0.20043832 0.06344405 -0.18139654 0.09111321 -0.010013998
0.58481437 0.6664444 0.89510274 0.032586094 0.09787819 -0.20140786 -0.107972145 0.9547768
0.98110974 0.231857 -0.46891612 -0.030272225 -0.016531527 -0.21266457 -0.47927937 0.7231324
-0.22476587 0.049943298 -0.234624 -0.009154588 0.11164057 -0.15911645 -0.21312463 0.038141727
0.08324838 0.19418633 -0.23241442 0.15315536 -0.056871146 -0.0049429834 -0.2354317 0.008561015
0.47155508 0.4585186 0.53256 -0.52181333 0.07913068 -0.9001186 -0.024688989 0.64700896
0.06839701 -0.0021683276 -0.7477149 0.025288409 0.05641392 0.23260841 -0.8126915 0.20428334
-0.07107663 0.10393417 -0.067074 -0.23315138 0.037586927 0.12259048 -0.12301758 -0.22326514
-0.03923607 0.13808334 0.11443189 0.17950785 -0.04208508 -0.24150264 -0.21177974 0.0035105944
0.112626076 -0.08456996 -0.077332646 -0.074555725 -0.20090029 0.113479525 -0.0986481 -0.11963743
-0.16423309 0.19837108 -0.114592105 0.0069430172 0.1145753 -0.14843845 -0.05087295 -0.12060952
-0.18824363 -0.18333673 -0.11881877 -0.3051888 -0.2140342 -0.02972364 -0.24892008 -0.040331535
-0.13222298 -0.21749988 0.08528907 0.14922148 0.12888533 -0.12977242 -0.28164974 0.18670641
-0.5389661 -0.055069022 -0.43890828 0.65138334 0.12524167 0.3870785 -0.10440162 -0.15127248
-0.70228803 0.030059218 0.6851103 0.08011586 0.21617937 0.108878195 0.6931143 -0.12177189
-0.40378913 0.07712176 -0.45410484 0.5732758 -0.087340474 0.71540856 0.22434351 -0.24427441
-0.16580158 0.150181 0.70033365 0.04298465 -0.21752039 0.12390292 0.44460464 0.37002546
0.1169467 -0.09369597 -0.14352071 -0.03382179 0.19246674 0.11040267 -0.14746693 0.10072684
0.20387512 0.24862966 -0.030719995 0.20940414 0.21155053 -0.20942721 -0.19012344 -0.08558622
00000000: c870 f8bd e00e 43bd f8ae 6dbe cc0e 303e
00000010: 2c39 8c3d f4f4 1bbe 8016 1bbd b8dc f9bd
00000020: daff 7ebe c096 7ebc 18ea f6bd b43f 4d3e
00000030: f4ee 813d 04c0 39be 9099 ba3d c011 24bc
00000040: 65b6 153f 1a9c 2a3f 7425 653f ff78 053d
00000050: 5c74 c83d dd3d 4ebe 8020 ddbd 416c 743f
00000060: 022a 7b3f ec6b 6d3e c615 f0be 75fd f7bc
00000070: 206d 87bc bec4 59be 1b64 f5be 341f 393f
00000080: 0629 66be 5891 4c3d 4641 70be 20fd 15bc
00000090: d0a3 e43d 6cef 22be 583d 5abe 803a 1c3d
000000a0: 207e aa3d c8d8 463e 0cfe 6dbe c2d4 1c3e
000000b0: b8f1 68bd c0f8 a1bb 0215 71be 8043 0c3c
000000c0: ab6f f13e f3c2 ea3e da55 083f 8f95 05bf
000000d0: 440f a23d 2c6e 66bf 9040 cabc 61a2 253f
000000e0: bb13 8c3d 801a 0ebb 3e6a 3fbf a329 cf3c
000000f0: 4812 673d e630 6e3e 8d0c 50bf a72f 513e
00000100: a090 91bd 70db d43d 185e 89bd 3cbf 6ebe
00000110: c0f4 193d b810 fb3d a4f0 fbbd 9e9f 64be
00000120: 00b6 20bd b865 0d3e 445b ea3d e8d0 373e
00000130: 6861 2cbd 784c 77be cadc 58be 0012 663b
00000140: 80a8 e63d 0433 adbd 9460 9ebd acb0 98bd
00000150: ceb8 4dbe f467 e83d 0408 cabd 7804 f5bd
00000160: b82c 28be ca21 4b3e 44af eabd 4082 e33b
00000170: 74a6 ea3d 4000 18be 2860 50bd 2002 f7bd
00000180: f0c2 40be a0bc 3bbe 4157 f3bd b541 9cbe
00000190: c82b 5bbe fe7e f3bc e8e4 7ebe ae32 25bd
000001a0: 7665 07be 4ab8 5ebe 09ac ae3d 84cd 183e
000001b0: 84fa 033e 10e3 04be 6534 90be f72f 3f3e
000001c0: aff9 09bf 0e90 61bd 96b8 e0be 0fc1 263f
000001d0: 5a3f 003e 272f c63e 84d0 d5bd 2ce7 1abe
000001e0: 26c9 33bf c03e f63c 6363 2f3f c913 a43d
000001f0: 205e 5d3e 88fb de3d f06f 313f 8a63 f9bd
00000200: 73bd cebe 03f2 9d3d 6e80 e8be 34c2 123f
00000210: 90df b2bd 0425 373f 4eba 653e 1223 7abe
00000220: e4c7 29be 0cc9 193e 1149 333f ac10 303d
00000230: aabd 5ebe d0c0 fd3d 38a3 e33e fa73 bd3e
00000240: c081 ef3d ace3 bfbd 18f7 12be b888 0abd
00000250: 0016 453e cc1a e23d 9201 17be e049 ce3d
00000260: a4c4 503e c698 7e3e 80a8 fbbc 0a6e 563e
00000270: b4a0 583e 1674 56be b8af 42be d447 afbd

fc3.bias f4 [10]
-0.057313472 0.86755216 0.059069812 -0.07822099 0.01338625 -0.13884348 -0.09692448 -0.55094403
0.015925018 -0.20561087
00000000: 88c1 6abd e617 5e3f 30f3 713d 5432 a0bd
00000010: 0052 5b3c fc2c 0ebe 5780 c6bd ab0a 0dbf
00000020: 2f75 823c a88b 52be

out.weight f4 [3, 10]
0.07989937 0.35293582 -0.07001306 0.9204973 0.026431143 0.291644 -0.040183313 -1.3630135
-0.8493064 -0.038036644 -0.22941506 0.51022625 0.034318358 -1.1476591 0.14747232 -0.02772069
-0.061822515 -0.025233312 0.26906675 -0.29066473 -0.15382062 -0.87239486 0.022034138 -0.5974993
0.09484208 0.3037342 0.1411628 0.8371383 0.5955636 0.019527018
00000000: 48a2 a33d 01b4 b43e 0263 8fbd b6a5 6b3f
00000010: 2086 d83c 5d52 953e 4297 24bd 3a77 aebf
00000020: 256c 59bf 50cc 1bbd c8eb 6abe 309e 023f
00000030: 6891 0c3d 7ee6 92bf fc02 173e 8016 e3bc
00000040: 9b39 7dbd 17b6 cebc 1ec3 893e 02d2 94be
00000050: 2783 1dbe 4555 5fbf f080 b43c b7f5 18bf
00000060: 903c c23d 0d83 9b3e fb8c 103e b24e 563f
00000070: db76 183f 20f7 9f3c

out.bias f4 [3]
-0.3792807 0.5265197 -0.8383587
00000000: 1431 c2be ffc9 063f ad9e 56bf
